…
8080/"},"id":"dYNBYQP0wMmR","executionInfo":{"status":"ok","timestamp":1616478648581,"user_tz":-540,"elapsed":621,"user":{"displayName":"김혜빈","photoUrl":"","userId":"10040074935049254379"}},"outputId":"0c64e6ce-84ed-4e17-d536-1d740514813f"},"source":["model.summary()"],"execution_count":16,"outputs":[{"output_type":"stream","text":["Model: \"sequential\"\n","_________________________________________________________________\n","Layer (type)                 Output Shape              Param #   \n","=================================================================\n","conv2d (Conv2D)              (None, 148, 148, 32)      896       \n","_________________________________________________________________\n","max_pooling2d (MaxPooling2D) (None, 74, 74, 32)        0         \n","_________________________________________________________________\n","conv2d_1 (Conv2D)            (None, 72, 72, 64)        18496     \n","_________________________________________________________________\n","max_pooling2d_1 (MaxPooling2 (None, 36, 36, 64)        0         \n","_________________________________________________________________\n","conv2d_2 (Conv2D)            (None, 34, 34, 128)       73856     \n","_________________________________________________________________\n","max_pooling2d_2 (MaxPooling2 (None, 17, 17, 128)       0         \n","_________________________________________________________________\n","conv2d_3 (Conv2D)            (None, 15, 15, 128)       147584    \n","_________________________________________________________________\n","max_pooling2d_3 (MaxPooling2 (None, 7, 7, 128)         0         \n","_________________________________________________________________\n","flatten (Flatten)            (None, 6272)              0         \n","_________________________________________________________________\n","dropout (Dropout)            (None, 6272)              0         \n","_________________________________________________________________\n","dense (Dense)                (None, 512)               3211776   \n","_________________________________________________________________\n","dense_1 (Dense)              (None, 1)                 513       \n","=================================================================\n","Total params: 3,453,121\n","Trainable params: 3,453,121\n","Non-trainable params: 0\n","_________________________________________________________________\n"],"name":"stdout"}]},{"cell_type":"markdown","metadata":{"id":"Rd23NZjNzWOE"},"source":["> ## 2) Model Compile\n","\n","- 모델 학습방법 설정"]},{"cell_type":"code","metad
…
